_________________________________________________________________
Layer (type)                 Output Shape              Param #   
=================================================================
conv2d_1 (Conv2D)            (None, 42, 42, 32)        896       
_________________________________________________________________
max_pooling2d_1 (MaxPooling2 (None, 21, 21, 32)        0         
_________________________________________________________________
conv2d_2 (Conv2D)            (None, 7, 7, 64)          18496     
_________________________________________________________________
max_pooling2d_2 (MaxPooling2 (None, 3, 3, 64)          0         
_________________________________________________________________
conv2d_3 (Conv2D)            (None, 1, 1, 64)          36928     
_________________________________________________________________
lambda_1 (Lambda)            (None, 1)                 0         
_________________________________________________________________
dense_1 (Dense)              (None, 120)               240       
=================================================================
Total params: 56,560
Trainable params: 56,560
Non-trainable params: 0
_________________________________________________________________
None
Found 12000 images belonging to 120 classes.
Found 8580 images belonging to 120 classes.
Epoch 1/50

  1/375 [..............................] - ETA: 27:20 - loss: 4.7876 - acc: 0.0312
  4/375 [..............................] - ETA: 6:52 - loss: 4.7876 - acc: 0.0156 
…
